model_net.pth (torch, 16992 bytes, 3 tensors)

weight f4 [32, 107]
000000 eb f5 40 3d f0 f9 93 bd fe c6 9e bc 0d 5d 34 3d
       0.047109526 -0.07225406 -0.019381996 0.044034053
000010 a0 34 42 3d 30 e3 b7 3d 1d a9 9c bc d3 a4 bb 3c
       0.04741347 0.089788795 -0.019123608 0.022905743
000020 99 d4 42 bd af ea 84 bc 4d c9 46 bd ff b8 92 3d
       -0.04756603 -0.016225187 -0.04853182 0.071641915
000030 6a 5f 1a 3a 7e 16 21 3d fe cd 59 3d 23 94 93 3c
       0.00058888516 0.03932809 0.053174965 0.018014973
000040 93 8e 28 3c 35 db e7 bb da b5 a7 bd b0 31 7f 3c
       0.010287899 -0.007075692 -0.08188982 0.015575811
000050 b7 73 af bc 0b 6a a6 bd 3d 76 b8 3d 6e db 28 bc
       -0.021417482 -0.08125695 0.09006927 -0.010306222
000060 42 a0 45 bd 8f be c0 bd 17 5b b6 bd e9 c9 16 3d
       -0.048248537 -0.09411346 -0.08904093 0.03681365
000070 b5 c3 34 bd f9 0c 2b bd a9 1e 65 bd 27 d1 9f 3d
       -0.044131953 -0.04176042 -0.055937443 0.078035645
000080 3c 60 be bc 02 55 80 3d ba 2d 9d 3d 0a 80 99 bd
       -0.023239248 0.06266214 0.07674737 -0.07495125
000090 2b b5 93 3d a8 3a 97 bc 5c a0 bd 3d e0 41 4a 3d
       0.072122894 -0.018460587 0.09259102 0.04937923
0000a0 87 c9 bf bd a9 20 93 3c 0b 32 0b 3d 20 a6 0f bd
       -0.0936461 0.01795991 0.03398327 -0.03507054
0000b0 d7 22 96 3d 63 f5 a3 bd 65 4a fb bc 05 a6 bc 3d
       0.07330864 -0.08005788 -0.030675123 0.09211353
0000c0 35 5d c1 3d 6c ce 45 3d 3f 60 6c bd 4c 59 aa bd
       0.09441606 0.048292562 -0.057708975 -0.08317813
0000d0 42 fa a0 bd 46 fa c5 bc 87 51 60 3d 51 bb fa 3c
       -0.07860233 -0.024167191 0.05476525 0.030606898
0000e0 b1 59 40 bc 6f 0f b2 3d 2d 79 9b 3d 61 12 39 bd
       -0.011740134 0.0869435 0.07591472 -0.045183543
0000f0 c5 7a 2b bd 19 aa 94 ba 09 58 a4 3c 92 6b 35 ba
       -0.04186513 -0.0011342197 0.02006151 -0.0006920631
000100 26 df 18 3d e5 99 88 3d 5e cc 8e bc d2 75 42 3d
       0.037322186 0.06669978 -0.017431434 0.047475643
000110 57 6b 57 3c f7 fe 17 3d e7 03 23 3d b3 ac d3 bc
       0.01314815 0.037108388 0.039798643 -0.025839185
000120 ac 8c 30 bd f3 40 29 3d 13 86 7d bd 51 e3 4f 3d
       -0.043102905 0.041321706 -0.06189544 0.050753895
000130 e6 10 7e bd 91 d3 87 3d 81 e1 1e 3d 12 04 c2 bc
       -0.062027834 0.0663215 0.038789276 -0.023683582
000140 43 56 62 3d ac 67 02 bd 75 b8 a8 3c 4b 2b e9 3c
       0.055258047 -0.03183715 0.020595768 0.028463027
000150 ef c2 21 3c 56 09 9f 3c a4 8c fb ba 94 ca e4 bc
       0.009873136 0.019413631 -0.0019191694 -0.027928628
000160 20 eb 5c 3d 5a 2f 1c 3d 65 b2 13 3d 1b aa 85 3d
       0.05393517 0.038131095 0.036058802 0.06526586
000170 a2 2e 4f bd 18 00 b8 bc 57 95 34 bb e1 c5 9f 3d
       -0.050581582 -0.022460982 -0.0027554834 0.07801414
000180 e2 a8 9d bd 94 21 63 bd 87 a4 bc bc 08 1f a9 bd
       -0.076982275 -0.055451944 -0.023027672 -0.08257872
000190 8c 6c 9c bd 2e a0 87 3d 24 c6 93 3b c4 46 9f bd
       -0.07637891 0.06622349 0.004509704 -0.07777169
0001a0 21 c4 82 bc 72 4b 50 bb 8c c6 0c bd 42 9b a5 bd
       -0.015962662 -0.003178325 -0.034369037 -0.08086254
0001b0 11 81 57 3d 4d a1 43 bc 46 4d c1 3d db a1 97 bd
       0.05261332 -0.011940313 0.09438567 -0.07403918
0001c0 af 62 59 bd a2 93 a4 bb b5 df 89 bd b7 49 90 3d
       -0.053072628 -0.005022482 -0.06732122 0.0704531
0001d0 e0 1b 99 3d 24 5d b3 3d c8 f6 79 bd 4a de 8c 3d
       0.0747602 0.087579995 -0.061026365 0.06878336
0001e0 2c 78 89 3d 7f 8e 1d bd 5f cd 2d 3c c1 b0 3c 3d
       0.06712374 -0.038465973 0.010608046 0.046067003
0001f0 8b ad 8d 3d 7b eb b8 bd 8c 1c c5 3d 24 1d c7 bc
       0.06917866 -0.09029289 0.096245855 -0.024305888
000200 90 56 21 3d 96 ef 75 bd 2d 5c 98 bd 8a 15 86 bd
       0.039389193 -0.06004294 -0.07439456 -0.06547077
000210 b6 5e 69 3d 46 52 43 bd 41 2f 66 3d fa 6a ef 3c
       0.05697509 -0.047685884 0.05619741 0.029225815
000220 7f 82 1d 3d 20 26 b0 bc 2d 83 fa bc e1 44 39 bd
       0.03845453 -0.021502554 -0.030580128 -0.045231704
000230 6f 56 5d bd 01 8d b6 3d 5c 28 ac bb ea ce 29 bd
       -0.054037508 0.08913613 -0.0052538346 -0.041457094
000240 6b 35 b8 bd 36 cf 89 3b ad 87 c4 bd 4f 35 95 ba
       -0.08994564 0.0042056097 -0.095961906 -0.0011383685
000250 95 05 7a 3d c6 11 64 bd 8b 90 59 3d df 9f fc bc
       0.06104048 -0.055681013 0.053116363 -0.030837951
000260 3b 46 98 bd 3c 18 c4 bd 5e b6 44 3d 98 7a 97 bd
       -0.074352704 -0.09574935 0.04802548 -0.0739643
000270 77 58 41 3d f6 c7 62 3c d8 35 57 3d 59 d3 94 bd
       0.047203507 0.01384162 0.052541584 -0.07266874
000280 97 23 ad 3d af 33 c5 bd 93 47 96 bd 25 76 6d 3d
       0.08454054 -0.096289985 -0.073378704 0.057974
000290 5a 52 57 3b 9e 5a 5e bd 8a 1f a6 bc 34 32 b0 bd
       0.0032855482 -0.054285638 -0.02027871 -0.086033255
0002a0 78 4f ac bd ef e8 a9 bc 0b 09 97 3d 18 83 ec 3c
       -0.08413595 -0.020740954 0.07374772 0.028871104
0002b0 bb 56 95 3c ad e3 d1 bc f1 33 b4 3d 17 b6 72 3a
       0.018229833 -0.02562126 0.087989695 0.0009258701
0002c0 c1 b3 05 3d fe 65 c9 3a 4b 29 77 3c 74 0b 04 3d
       0.03264213 0.0015365479 0.015085529 0.032237485
0002d0 91 ee 97 3d 32 ed 63 3d a1 b4 4a 3c 97 4f 1e 3d
       0.0741855 0.05564613 0.012372167 0.03865012
0002e0 11 2a ee bc fc 54 87 3d cb 50 de 3c da 6a 95 3d
       -0.029072793 0.06608006 0.027138134 0.07295771
0002f0 10 4d 77 bc f0 a6 a1 bd 46 72 9c 3c cd 0c 21 3d
       -0.015094057 -0.07893169 0.019097459 0.03931885
000300 67 fa 9f 3d ff 79 19 3d ab 4d 12 3d 42 8f 9d 3d
       0.07811432 0.03746986 0.0357186 0.0769334
000310 cf 14 08 bd 0e cf ae 3d a6 03 4b 3d a4 39 84 3d
       -0.03322297 0.08535586 0.049564026 0.064563066
000320 ec 33 8d 3d df c0 a1 bd 3f 3f 4e 3d b1 64 b8 3d
       0.06894669 -0.07898115 0.050353285 0.0900358
000330 2a 17 8b bd 4b c0 07 bc 44 a9 71 bd 9c 3b bf bc
       -0.067915276 -0.008285592 -0.058999315 -0.023343854
000340 9b 0b 6c 3c 87 cf 53 3d 6d ea e5 bc 9a 7a bb bd
       0.014407064 0.051711585 -0.028065884 -0.09154244
000350 e3 cf 55 3d 7e 27 5e 3d 11 92 8f bc 20 7e a9 3d
       0.05220021 0.05423688 -0.017525705 0.082760096
000360 ae a0 98 3d ee 8c ae bc 59 a8 74 3b 9a 80 8b 3c
       0.07452522 -0.021307435 0.0037331788 0.017029095
000370 92 30 9b bc 9a 1b c3 bc 3d be 32 bd 90 2f 61 bd
       -0.018944059 -0.023816872 -0.043638457 -0.054977
000380 5f c1 45 3d 7d 29 eb bc eb f6 3d bd 02 68 ae 3d
       0.048280116 -0.028706307 -0.046378057 0.08515932
000390 7f 3d 7d 3c 3b da 8e 3d c1 6c b4 3d df 1f 5f bc
       0.015456556 0.06975218 0.08809806 -0.0136184385
0003a0 cf 42 6c 3c e5 8f b7 3d f3 38 88 bd cc 72 ed bc
       0.014420225 0.089629926 -0.06651487 -0.028985403
0003b0 0b 63 61 3c d9 e9 d6 bb f6 d8 d2 3c 00 37 50 3d
       0.013756524 -0.0065586385 0.02573822 0.050833702
0003c0 5d e9 22 bd 1a a9 f6 3b 4c 1f b3 3d 58 10 60 bd
       -0.039773334 0.0075274827 0.08746204 -0.054703087
0003d0 c2 42 86 bd 4a d6 97 bd 9c b2 6c 3d c0 99 b5 bd
       -0.06555702 -0.07413919 0.057787523 -0.08867216
0003e0 2b 90 40 bd 40 b8 85 3d 2b 61 6d bd a5 01 a1 3d
       -0.04701249 0.065292835 -0.057953995 0.07861642
0003f0 ae 1a 39 bd c9 92 7a 3c d9 55 4f 3c f3 66 1b bb
       -0.04519146 0.015293785 0.012654745 -0.0023712486

bias f4 [32]
000000 79 fd 3e bb fe 59 fd bc 07 40 a2 ba a3 3d 73 bd
       -0.002914278 -0.0309267 -0.0012378701 -0.059384953
000010 31 67 15 3d 16 2b 75 bd 5a e8 ff bc c8 0b 36 bd
       0.036475364 -0.059855543 -0.031238724 -0.04444483
000020 d9 57 47 bd 31 88 b4 3a b2 32 30 bd 93 66 2b bd
       -0.048667762 0.0013773498 -0.043017097 -0.04184587
000030 d8 ef 26 3c dd 6c 26 3d 8b 69 3c bd 85 17 53 3d
       0.010189019 0.040631164 -0.04599909 0.0515361
000040 f9 f9 ea 3c 9e d9 98 3d 8f 3b 19 3c 83 74 a2 3d
       0.02868365 0.07463382 0.009352579 0.07932379
000050 2a 69 b2 bd 69 bb e6 3c 34 23 aa bd 88 69 27 3d
       -0.08711465 0.028165536 -0.08307496 0.040872127
000060 8a e9 17 bd 5e 5d a2 bc 89 b1 a7 3d a3 5a b9 3d
       -0.037087955 -0.019819912 0.08188159 0.09050491
000070 77 97 c6 bc 42 f1 63 bd d2 61 58 3d 0d 67 2f bd
       -0.024242146 -0.055650003 0.052827664 -0.042822886

weight f4 [1, 32]
000000 54 40 aa bd 66 21 08 be 27 e3 33 3e 80 c7 2b 3c
       -0.08313051 -0.1329399 0.1756712 0.010484576
000010 6d 92 0d 3d f3 84 d2 bd 35 c5 a8 3d 03 a6 2b be
       0.03456347 -0.10279264 0.08240739 -0.16762547
000020 fb 32 52 bd 40 4f dd bc ad 11 d5 3d 5f ed 86 bc
       -0.05131815 -0.027015328 0.10403762 -0.01647061
000030 47 f8 cf 3c 87 6a 0a 3e 33 f2 7e 3d 14 10 13 3e
       0.025386943 0.135172 0.062242698 0.14361602
000040 8f c1 76 bd 8e ca df 3d 41 77 e0 bc f5 d4 51 bc
       -0.060243186 0.10927306 -0.027400615 -0.012807121
000050 a4 ba 1a 3d 10 86 2e 3e fa b6 3b 3a 40 a9 9a bc
       0.03777565 0.17043328 0.00071607495 -0.018879533
000060 79 b3 8d bd 11 b0 e4 bd 34 f6 cf 3d f5 3b 16 bd
       -0.06918997 -0.111663945 0.101543814 -0.036678273
000070 8a e7 73 bd 04 2f 1d 3d 74 36 f7 3c 17 14 eb bc
       -0.059546985 0.038374916 0.030177332 -0.028696103
