models/model_net.pth (torch, 15824 bytes, 3 tensors)

fc1.weight f4 [32, 107]
000000 ec f5 40 3d f0 f9 93 bd 00 c7 9e bc 0c 5d 34 3d
       0.04710953 -0.07225406 -0.019382 0.04403405
000010 a0 34 42 3d 30 e3 b7 3d 1c a9 9c bc d4 a4 bb 3c
       0.04741347 0.089788795 -0.019123606 0.022905745
000020 99 d4 42 bd b0 ea 84 bc 4d c9 46 bd fe b8 92 3d
       -0.04756603 -0.016225189 -0.04853182 0.07164191
000030 80 5f 1a 3a 7c 16 21 3d fc cd 59 3d 24 94 93 3c
       0.00058888644 0.039328083 0.053174958 0.018014975
000040 90 8e 28 3c 30 db e7 bb da b5 a7 bd b0 31 7f 3c
       0.010287896 -0.0070756897 -0.08188982 0.015575811
000050 b8 73 af bc 0b 6a a6 bd 3e 76 b8 3d 70 db 28 bc
       -0.021417484 -0.08125695 0.09006928 -0.010306224
000060 42 a0 45 bd 8f be c0 bd 17 5b b6 bd e8 c9 16 3d
       -0.048248537 -0.09411346 -0.08904093 0.036813647
000070 b5 c3 34 bd f9 0c 2b bd a9 1e 65 bd 28 d1 9f 3d
       -0.044131953 -0.04176042 -0.055937443 0.07803565
000080 3c 60 be bc 02 55 80 3d ba 2d 9d 3d 0a 80 99 bd
       -0.023239248 0.06266214 0.07674737 -0.07495125
000090 2c b5 93 3d a8 3a 97 bc 5c a0 bd 3d e0 41 4a 3d
       0.0721229 -0.018460587 0.09259102 0.04937923
0000a0 87 c9 bf bd a8 20 93 3c 0c 32 0b 3d 20 a6 0f bd
       -0.0936461 0.017959908 0.033983275 -0.03507054
0000b0 d8 22 96 3d 63 f5 a3 bd 64 4a fb bc 04 a6 bc 3d
       0.07330865 -0.08005788 -0.03067512 0.092113525
0000c0 34 5d c1 3d 6c ce 45 3d 3f 60 6c bd 4c 59 aa bd
       0.09441605 0.048292562 -0.057708975 -0.08317813
0000d0 42 fa a0 bd 48 fa c5 bc 88 51 60 3d 50 bb fa 3c
       -0.07860233 -0.024167195 0.054765254 0.030606896
0000e0 b0 59 40 bc 70 0f b2 3d 2e 79 9b 3d 61 12 39 bd
       -0.011740133 0.08694351 0.075914726 -0.045183543
0000f0 c5 7a 2b bd 00 aa 94 ba 08 58 a4 3c 80 6b 35 ba
       -0.04186513 -0.0011342168 0.020061508 -0.0006920621
000100 28 df 18 3d e4 99 88 3d 60 cc 8e bc d0 75 42 3d
       0.037322193 0.06669977 -0.017431438 0.047475636
000110 58 6b 57 3c f8 fe 17 3d e8 03 23 3d b4 ac d3 bc
       0.013148151 0.03710839 0.039798647 -0.025839187
000120 ac 8c 30 bd f4 40 29 3d 13 86 7d bd 50 e3 4f 3d
       -0.043102905 0.04132171 -0.06189544 0.05075389
000130 e6 10 7e bd 92 d3 87 3d 80 e1 1e 3d 14 04 c2 bc
       -0.062027834 0.06632151 0.038789272 -0.023683585
000140 44 56 62 3d ac 67 02 bd 74 b8 a8 3c 48 2b e9 3c
       0.05525805 -0.03183715 0.020595767 0.02846302
000150 f0 c2 21 3c 54 09 9f 3c c0 8c fb ba 94 ca e4 bc
       0.009873137 0.019413628 -0.0019191727 -0.027928628
000160 20 eb 5c 3d 5c 2f 1c 3d 64 b2 13 3d 1a aa 85 3d
       0.05393517 0.038131103 0.0360588 0.06526585
000170 a2 2e 4f bd 18 00 b8 bc 60 95 34 bb e2 c5 9f 3d
       -0.050581582 -0.022460982 -0.0027554855 0.07801415
000180 e2 a8 9d bd 94 21 63 bd 88 a4 bc bc 08 1f a9 bd
       -0.076982275 -0.055451944 -0.023027673 -0.08257872
000190 8c 6c 9c bd 2e a0 87 3d 20 c6 93 3b c4 46 9f bd
       -0.07637891 0.06622349 0.0045097023 -0.07777169
0001a0 20 c4 82 bc 80 4b 50 bb 8c c6 0c bd 42 9b a5 bd
       -0.01596266 -0.0031783283 -0.034369037 -0.08086254
0001b0 10 81 57 3d 50 a1 43 bc 46 4d c1 3d db a1 97 bd
       0.052613318 -0.011940315 0.09438567 -0.07403918
0001c0 af 62 59 bd a0 93 a4 bb b5 df 89 bd b8 49 90 3d
       -0.053072628 -0.005022481 -0.06732122 0.07045311
0001d0 e0 1b 99 3d 24 5d b3 3d c8 f6 79 bd 4a de 8c 3d
       0.0747602 0.087579995 -0.061026365 0.06878336
0001e0 2c 78 89 3d 7f 8e 1d bd 60 cd 2d 3c c0 b0 3c 3d
       0.06712374 -0.038465973 0.010608047 0.046067
0001f0 8c ad 8d 3d 7b eb b8 bd 8c 1c c5 3d 24 1d c7 bc
       0.06917867 -0.09029289 0.096245855 -0.024305888
000200 90 56 21 3d 96 ef 75 bd 2d 5c 98 bd 8a 15 86 bd
       0.039389193 -0.06004294 -0.07439456 -0.06547077
000210 b4 5e 69 3d 46 52 43 bd 40 2f 66 3d f8 6a ef 3c
       0.05697508 -0.047685884 0.056197405 0.029225811
000220 80 82 1d 3d 20 26 b0 bc 2c 83 fa bc e1 44 39 bd
       0.038454533 -0.021502554 -0.030580126 -0.045231704
000230 6f 56 5d bd 02 8d b6 3d 60 28 ac bb ea ce 29 bd
       -0.054037508 0.08913614 -0.0052538365 -0.041457094
000240 6b 35 b8 bd 30 cf 89 3b ad 87 c4 bd 40 35 95 ba
       -0.08994564 0.004205607 -0.095961906 -0.0011383668
000250 94 05 7a 3d c6 11 64 bd 8c 90 59 3d e0 9f fc bc
       0.061040476 -0.055681013 0.053116366 -0.030837953
000260 3b 46 98 bd 3c 18 c4 bd 60 b6 44 3d 98 7a 97 bd
       -0.074352704 -0.09574935 0.04802549 -0.0739643
000270 78 58 41 3d f8 c7 62 3c d8 35 57 3d 59 d3 94 bd
       0.04720351 0.013841622 0.052541584 -0.07266874
000280 96 23 ad 3d af 33 c5 bd 94 47 96 bd 24 76 6d 3d
       0.08454053 -0.096289985 -0.07337871 0.057973996
000290 60 52 57 3b 9e 5a 5e bd 88 1f a6 bc 34 32 b0 bd
       0.0032855496 -0.054285638 -0.020278707 -0.086033255
0002a0 78 4f ac bd f0 e8 a9 bc 0c 09 97 3d 18 83 ec 3c
       -0.08413595 -0.020740956 0.073747724 0.028871104
0002b0 bc 56 95 3c ac e3 d1 bc f2 33 b4 3d 00 b6 72 3a
       0.018229835 -0.025621258 0.0879897 0.00092586875
0002c0 c0 b3 05 3d 00 66 c9 3a 48 29 77 3c 74 0b 04 3d
       0.032642126 0.0015365481 0.015085526 0.032237485
0002d0 90 ee 97 3d 34 ed 63 3d a0 b4 4a 3c 98 4f 1e 3d
       0.07418549 0.055646136 0.012372166 0.038650125
0002e0 10 2a ee bc fc 54 87 3d cc 50 de 3c da 6a 95 3d
       -0.029072791 0.06608006 0.027138136 0.07295771
0002f0 10 4d 77 bc f0 a6 a1 bd 48 72 9c 3c cc 0c 21 3d
       -0.015094057 -0.07893169 0.019097462 0.039318845
000300 68 fa 9f 3d 00 7a 19 3d ac 4d 12 3d 42 8f 9d 3d
       0.07811433 0.037469864 0.035718605 0.0769334
000310 d0 14 08 bd 0e cf ae 3d a4 03 4b 3d a4 39 84 3d
       -0.033222973 0.08535586 0.04956402 0.064563066
000320 ec 33 8d 3d df c0 a1 bd 40 3f 4e 3d b2 64 b8 3d
       0.06894669 -0.07898115 0.05035329 0.09003581
000330 2a 17 8b bd 48 c0 07 bc 44 a9 71 bd 9c 3b bf bc
       -0.067915276 -0.0082855895 -0.058999315 -0.023343854
000340 98 0b 6c 3c 88 cf 53 3d 6c ea e5 bc 9a 7a bb bd
       0.014407061 0.05171159 -0.028065883 -0.09154244
000350 e4 cf 55 3d 7c 27 5e 3d 10 92 8f bc 20 7e a9 3d
       0.052200213 0.054236874 -0.017525703 0.082760096
000360 ae a0 98 3d f0 8c ae bc 60 a8 74 3b 98 80 8b 3c
       0.07452522 -0.021307439 0.0037331805 0.017029092
000370 90 30 9b bc 9c 1b c3 bc 3d be 32 bd 90 2f 61 bd
       -0.018944055 -0.023816876 -0.043638457 -0.054977
000380 60 c1 45 3d 7c 29 eb bc eb f6 3d bd 02 68 ae 3d
       0.04828012 -0.028706305 -0.046378057 0.08515932
000390 80 3d 7d 3c 3a da 8e 3d c2 6c b4 3d e0 1f 5f bc
       0.015456557 0.06975217 0.088098064 -0.013618439
0003a0 d0 42 6c 3c e6 8f b7 3d f2 38 88 bd cc 72 ed bc
       0.014420226 0.08962993 -0.066514865 -0.028985403
0003b0 08 63 61 3c e0 e9 d6 bb f4 d8 d2 3c 00 37 50 3d
       0.013756521 -0.006558642 0.025738217 0.050833702
0003c0 5d e9 22 bd 20 a9 f6 3b 4c 1f b3 3d 58 10 60 bd
       -0.039773334 0.0075274855 0.08746204 -0.054703087
0003d0 c2 42 86 bd 4a d6 97 bd 9c b2 6c 3d c0 99 b5 bd
       -0.06555702 -0.07413919 0.057787523 -0.08867216
0003e0 2b 90 40 bd 40 b8 85 3d 2b 61 6d bd a6 01 a1 3d
       -0.04701249 0.065292835 -0.057953995 0.078616425
0003f0 ae 1a 39 bd c8 92 7a 3c d8 55 4f 3c 00 67 1b bb
       -0.04519146 0.015293784 0.012654744 -0.0023712516

fc1.bias f4 [32]
000000 80 fd 3e bb fc 59 fd bc 00 40 a2 ba a3 3d 73 bd
       -0.0029142797 -0.030926697 -0.0012378693 -0.059384953
000010 30 67 15 3d 16 2b 75 bd 58 e8 ff bc c8 0b 36 bd
       0.03647536 -0.059855543 -0.03123872 -0.04444483
000020 d9 57 47 bd 40 88 b4 3a b2 32 30 bd 93 66 2b bd
       -0.048667762 0.0013773516 -0.043017097 -0.04184587
000030 d8 ef 26 3c dc 6c 26 3d 8b 69 3c bd 84 17 53 3d
       0.010189019 0.04063116 -0.04599909 0.051536098
000040 f8 f9 ea 3c 9e d9 98 3d 90 3b 19 3c 82 74 a2 3d
       0.028683648 0.07463382 0.00935258 0.07932378
000050 2a 69 b2 bd 68 bb e6 3c 34 23 aa bd 88 69 27 3d
       -0.08711465 0.028165534 -0.08307496 0.040872127
000060 8a e9 17 bd 60 5d a2 bc 8a b1 a7 3d a4 5a b9 3d
       -0.037087955 -0.019819915 0.0818816 0.090504915
000070 78 97 c6 bc 42 f1 63 bd d4 61 58 3d 0d 67 2f bd
       -0.024242148 -0.055650003 0.05282767 -0.042822886

fc3.weight f4 [1, 32]
000000 54 40 aa bd 66 21 08 be 27 e3 33 3e 80 c7 2b 3c
       -0.08313051 -0.1329399 0.1756712 0.010484576
000010 6c 92 0d 3d f3 84 d2 bd 36 c5 a8 3d 03 a6 2b be
       0.034563467 -0.10279264 0.0824074 -0.16762547
000020 fc 32 52 bd 40 4f dd bc ae 11 d5 3d 60 ed 86 bc
       -0.051318154 -0.027015328 0.10403763 -0.016470611
000030 48 f8 cf 3c 87 6a 0a 3e 34 f2 7e 3d 13 10 13 3e
       0.025386944 0.135172 0.0622427 0.143616
000040 90 c1 76 bd 8e ca df 3d 40 77 e0 bc f0 d4 51 bc
       -0.06024319 0.10927306 -0.027400613 -0.012807116
000050 a4 ba 1a 3d 0f 86 2e 3e 00 b7 3b 3a 40 a9 9a bc
       0.03777565 0.17043327 0.0007160753 -0.018879533
000060 79 b3 8d bd 11 b0 e4 bd 32 f6 cf 3d f4 3b 16 bd
       -0.06918997 -0.111663945 0.1015438 -0.03667827
000070 8a e7 73 bd 04 2f 1d 3d 78 36 f7 3c 18 14 eb bc
       -0.059546985 0.038374916 0.03017734 -0.028696105
